bestmodel/model.pt (torch, 442635 bytes, 26 tensors)

conv1.0.weight f4 [16, 1, 3, 3]
0	0xbe942c07	-0.2893984
1	0x3e37f512	0.1796458
2	0xbdc9bc5d	-0.098503806
3	0x3e9eec16	0.31039494
4	0xbe85873b	-0.26079735
5	0x3cc409b7	0.023930414
6	0xbe8fd181	-0.28089526
7	0x3e4b3971	0.19846131
8	0x3e12fb4b	0.14353673
9	0x3d9427cf	0.072341554
10	0xbe47c19f	-0.19507454
11	0xbda73dc0	-0.08166075
12	0xbdab17c9	-0.08354146
13	0x3de44250	0.111454606
14	0x3e119cbc	0.14219946
15	0x3e56ac61	0.20964195
16	0x3e8304c3	0.2558957
17	0x3d9d7d91	0.076899655
18	0x3e835088	0.25647378
19	0xbdc24f67	-0.09487801
20	0xbe4eb899	-0.20187606
21	0xbe7f1e27	-0.24913846
22	0xbe9a473f	-0.3013248
23	0xbe3d2bee	-0.18473789
24	0x3e8c6987	0.2742426
25	0xbe4f83e6	-0.20265159
26	0xbdcac779	-0.09901328
27	0x3e1855f3	0.14876537
28	0x3e9289cf	0.28620765
29	0x3d8fbd5e	0.07018541
30	0x3db23478	0.08701414
31	0xbe26b121	-0.16278507
32	0x3e6f7026	0.23382625
33	0x3d25f0cc	0.040512845
34	0xbdd01e38	-0.10162014
35	0x3db37ca3	0.08764007
36	0x3d72910e	0.059220366
37	0xbe2e93c5	-0.17048557
38	0xbe1f9435	-0.1558388
39	0xbe313085	-0.17303665
40	0xbe14a876	-0.14517388
41	0x3e5208da	0.20511189
42	0x3d261d32	0.040555187
43	0x3ea85ca8	0.3288319
44	0x3e37f499	0.179644
45	0x3d70b6ee	0.058768205
46	0x3e3682cc	0.17823333
47	0xbe4f3a44	-0.2023707
48	0xbe12ab2c	-0.1432311
49	0x3e0a4eab	0.13506572
50	0xbe4ad5d5	-0.19808133
51	0x3e765e1b	0.24059336
52	0x3e8ffb94	0.28121626
53	0xbd29d511	-0.04146296
54	0x3e060b60	0.13090277
55	0x3dffb2c6	0.1248527
56	0x3d7ded40	0.061993837
57	0x3e37003a	0.1787118
58	0x3e4d4884	0.20047194
59	0xbda96b34	-0.082724005
60	0xbd685871	-0.05672497
61	0xbdda8a82	-0.106709495
62	0x3d37f631	0.04491252
63	0xbdd6e1e0	-0.10492301
64	0xbcf7ae78	-0.03023456
65	0x3e338eb6	0.17534909
66	0x3da63c0f	0.08116924
67	0x3e59f3d8	0.21284425
68	0x3e4a0b82	0.19730952
69	0x3e981b15	0.29708162
70	0x3e54b13c	0.20770735
71	0x3df6cc9e	0.120507464
72	0xbe8adfb3	-0.27123794
73	0x3df79852	0.120896
74	0xbe1dccf3	-0.15410213
75	0xbe1bf702	-0.15230945
76	0x3e8e492d	0.27790204
77	0x3e9c1e97	0.30492088
78	0xbe15ab65	-0.14616163
79	0xbdf9f68e	-0.1220523
80	0x3d7b1c03	0.06130601
81	0xbe78587f	-0.24252509
82	0xbea57a9c	-0.32320106
83	0xbdd8c22c	-0.1058391
84	0xbe578b3c	-0.21049207
85	0xbe6a4334	-0.22877198
86	0xbe23375c	-0.15939087
87	0x3e67dd1a	0.22642937
88	0x3e8f85f1	0.28031877
89	0x3d2c1d95	0.0420204
90	0x3d3b2c38	0.045696467
91	0x3c843d06	0.01614238
92	0xbe833d6a	-0.25632793
93	0xbe71b4f4	-0.23604184
94	0x3d31af8b	0.0433803
95	0x3c249c68	0.010047056
96	0xbe5ea7a2	-0.21743634
97	0x3e79a1c5	0.24378116
98	0xbd9dcff9	-0.07705683
99	0xbe9472a7	-0.28993723
100	0xbe6df6a3	-0.23238616
101	0x3d30b269	0.043138895
102	0xbe1ee7a6	-0.15518054
103	0xbea68b2e	-0.3252806
104	0xbe287561	-0.16451026
105	0xbe8b7fa1	-0.2724581
106	0xbca915e6	-0.020640325
107	0x3e71cdb1	0.23613621
108	0x3e3b3949	0.18283571
109	0xbe981df0	-0.2971034
110	0x3e3bf44c	0.1835491
111	0xbdc55519	-0.09635372
112	0x3e27a42e	0.16371223
113	0xbe639ef0	-0.22228599
114	0x3e9f6694	0.31132948
115	0xbc5841b4	-0.013199259
116	0xbea809f4	-0.32820094
117	0xbe525e2f	-0.2054374
118	0x3d4d5164	0.05012645
119	0xbe5013e1	-0.20320083
120	0x3dd49da0	0.10381627
121	0x3e7b59f5	0.24546035
122	0xbe85d700	-0.26140594
123	0x3d2443b1	0.040103618
124	0xbe1c3b67	-0.15257035
125	0xbe1f198d	-0.1553709
126	0x3e291f5b	0.16515867
127	0xbe168f0b	-0.14703004
128	0xbe6f8bed	-0.23393221
129	0x3d8c3b85	0.0684729
130	0x3d6d1dd4	0.057889774
131	0xbdc44dc4	-0.09585145
132	0x3ad82740	0.001649119
133	0x3d84be89	0.06481654
134	0xbe8606b4	-0.2617699
135	0xbe59b779	-0.21261396
136	0x3e09619e	0.13416144
137	0xbe101701	-0.14071275
138	0xbe662659	-0.22475566
139	0xbe02cf8b	-0.12774484
140	0x3d8acb72	0.06777085
141	0x3e7f1068	0.24908602
142	0x3dd3cb5f	0.10341524
143	0x3ea07c90	0.31345034

conv1.0.bias f4 [16]
0	0xbe926def	-0.28599498
1	0xbe7d3cba	-0.24730197
2	0xbd045b3f	-0.03231358
3	0xbe8f5543	-0.27994737
4	0x3dffaaf9	0.12483782
5	0xbdf342bb	-0.11877962
6	0x3e4f9616	0.20272097
7	0x3e571114	0.21002609
8	0x3e874c31	0.26425317
9	0xbe65f8dc	-0.22458214
10	0x3ea67bf2	0.32516438
11	0xbe09fc90	-0.13475251
12	0x3d95be37	0.07311671
13	0xbe72c4e5	-0.23707922
14	0xbe94862c	-0.29008615
15	0x3e979a21	0.2960978

conv1.1.weight f4 [16]
0	0x3f7cffbb	0.98827714
1	0x3f7fab15	0.99870425
2	0x3f861bc2	1.0477221
3	0x3f80eb41	1.0071794
4	0x3f7f09b8	0.99624205
5	0x3f795da8	0.97408533
6	0x3f73e1ca	0.952664
7	0x3f7ae2f7	0.9800257
8	0x3f7d288c	0.98889995
9	0x3f879f25	1.0595442
10	0x3f7cc428	0.9873681
11	0x3f8be6db	1.0929826
12	0x3f781d09	0.96919304
13	0x3f8111ad	1.0083519
14	0x3f832992	1.0247061
15	0x3f80c238	1.0059271

conv1.1.bias f4 [16]
0	0x3d710535	0.058842856
1	0xbbd6e541	-0.006558091
2	0x3d2a4df1	0.041578237
3	0x3d55be29	0.052183304
4	0x3d6458f9	0.055748913
5	0x3daed63a	0.08536954
6	0x3e1a3c58	0.15062082
7	0x3d97fcea	0.074212864
8	0xbc48b335	-0.012249758
9	0x3d2d5f9c	0.04232751
10	0x3cdde4e5	0.027086684
11	0x3d074476	0.033024274
12	0xbbc43a45	-0.0059883916
13	0x3caa0cba	0.020758022
14	0xbb1ba38b	-0.0023748602
15	0x3d5f0362	0.054446585

conv1.1.running_mean f4 [16]
0	0xc072410b	-3.78522
1	0x41c14cab	24.162436
2	0xc21ab735	-38.678913
3	0x4203647f	32.84814
4	0x41047f52	8.281084
5	0x416c228c	14.758434
6	0x41c046b2	24.03452
7	0x425f1912	55.774483
8	0xc06a2ac7	-3.658861
9	0xc20b6bc5	-34.855244
10	0xc1a20292	-20.251255
11	0xc263a500	-56.911133
12	0xc0aec1f2	-5.461175
13	0xc1d0f005	-26.117197
14	0xc195353e	-18.650997
15	0x41035701	8.208741

conv1.1.running_var f4 [16]
0	0x470775bd	34677.74
1	0x4738f31d	47347.113
2	0x47cc1bec	104503.84
3	0x4759409b	55616.605
4	0x4751e740	53735.25
5	0x4776894c	63113.297
6	0x4709e014	35296.08
7	0x47dff952	114674.64
8	0x47814b0b	66198.086
9	0x47d9dd25	111546.29
10	0x474669be	50793.742
11	0x480fdf10	147324.25
12	0x47877328	69350.31
13	0x476c57a2	60503.633
14	0x473b3280	47922.5
15	0x4764b11c	58545.11

conv2.0.weight f4 [32, 16, 3, 3]
0	0xbd1fcf83	-0.039016258
1	0xbd6c8806	-0.05774691
2	0xbc9523b1	-0.018205496
3	0xbb8be453	-0.0042691617
4	0x3d2f84ac	0.042851135
5	0x3d22648b	0.039646666
6	0x3c1321ad	0.008980197
7	0x3d5f588b	0.0545278
8	0xbcaeff8d	-0.02136209
9	0xbd558c3d	-0.052135695
10	0x3b9130a0	0.0044308454
11	0xbd8cebae	-0.0688089
12	0xbcff3dbb	-0.031157365
13	0xbd3bf3de	-0.045886867
14	0xbd5a8b94	-0.05335577
15	0x3b81b07a	0.003957805
16	0x3ad75048	0.0016427124
17	0xbd1fae38	-0.038984507
18	0xbd722a7b	-0.059122544
19	0xbd92e283	-0.0717211
20	0xbd351b53	-0.04421551
21	0x3d168f39	0.03675768
22	0xbd8929d7	-0.066974334
23	0xbc9e618f	-0.019333629
24	0x3d55febe	0.052244894
25	0x3d48592a	0.04891316
26	0x3cc6db90	0.024274617
27	0x3da43629	0.08018143
28	0x3c5a425d	0.013321486
29	0xbda03446	-0.0782247
30	0xbaa9528b	-0.0012918276
31	0xbdab51b9	-0.08365197
32	0x3cd57fdb	0.026061943
33	0xbdad0da6	-0.08449869
34	0x3d699dad	0.057035137
35	0x3bb0b4a9	0.00539263
36	0xb8634034	-5.418081e-05
37	0x3c80617d	0.015671486
38	0xbd9ddf6a	-0.077086285
39	0x3d20a7bd	0.039222468
40	0x3cfcc923	0.030857628
41	0x3c0e0407	0.008667952
42	0xbaee83bf	-0.0018197222
43	0xbd332c40	-0.043743372
44	0x3d9000d5	0.07031409
45	0x3d8f42ba	0.06995149
46	0x3cdfae2b	0.02730473
47	0xbd0063cc	-0.031345174
48	0xbce7e949	-0.028309481
49	0x3c819b97	0.015821261
50	0x3db86b46	0.09004836
51	0xbd268860	-0.0406574
52	0xbcdb72ff	-0.026788233
53	0x3cc1af3b	0.023643127
54	0xbcba7e1b	-0.02276521
55	0xbc10b001	-0.008831025
56	0x3cc74653	0.024325525
57	0x3d26b9cc	0.040704533
58	0xbd975728	-0.073896706
59	0x3d841102	0.064485565
60	0xbcf9e2cb	-0.030503651
61	0xbd9962d6	-0.074895546
62	0xbd80ed02	-0.06295206
63	0xbd94b46b	-0.072609745
64	0x3d3fa8be	0.046791784
65	0x3cececc2	0.028921489
66	0xbd4bcedc	-0.049757823
67	0x3d04b3b7	0.032397952
68	0xbd6bba41	-0.057550672
69	0xbd7ac4b9	-0.061222766
70	0x3d3ad629	0.045614395
71	0xbd2d6d9e	-0.042340867
72	0x3c4de045	0.012565677
73	0x3d3ca65a	0.046057083
74	0x3d947ed0	0.0725075
75	0xbc72af7a	-0.014812345
76	0x3d00e7bd	0.031471003
77	0x3c139bf9	0.009009355
78	0xba0634e2	-0.00051195745
79	0xbb94c71f	-0.0045403386
80	0x3cdd4e3b	0.027014842
81	0xbd4ecc3e	-0.05048775
82	0xbd333ef2	-0.0437612
83	0xbdc0ba56	-0.09410541
84	0xbd5a20eb	-0.05325405
85	0xbcc94cc9	-0.024572747
86	0xbd8f991f	-0.070116274
87	0x3c6755d5	0.014119585
88	0xbbbd8da8	-0.005784709
89	0xbcc58840	-0.02411282
90	0xbcda0038	-0.026611432
91	0x3d8980bf	0.067140095
92	0xbd35f4cf	-0.04442292
93	0x3c9d4ddf	0.01920217
94	0x3d80c3ee	0.062873706
95	0x3d3121cf	0.043245133
96	0xbc966bc9	-0.018361943
97	0x3d4d621a	0.050142385
98	0xbd23c7a0	-0.0399853
99	0xbd8b5cde	-0.068048224
100	0x3c7580b0	0.014984295
101	0x3d8e47a7	0.0694726
102	0x3cda7dd1	0.026671322
103	0x3d767df1	0.0601787
104	0xbd464adb	-0.04841123
105	0xbc2cd7d3	-0.010549503
106	0x3b951ba8	0.004550416
107	0x3d28faac	0.041254684
108	0xbcae20e8	-0.021255925
109	0xbd23f508	-0.040028602
110	0x3d676c0e	0.056499533
111	0x3da5faea	0.08104499
112	0x3d24f535	0.04027291
113	0xbd2d8e62	-0.042372115
114	0x3d9e38ee	0.07725702
115	0xbd992338	-0.074774206
116	0xbd790f2d	-0.06080549
117	0x3d42e328	0.047579914
118	0x3d691beb	0.05691139
119	0xbd83abb2	-0.06429233
120	0x3cf47214	0.029839553
121	0xbd186adb	-0.03721128
122	0x3d3f3d1a	0.04668913
123	0xbd1df3e9	-0.03856269
124	0x3d0a580b	0.03377537
125	0x3d8a2cc6	0.06746821
126	0xbd6b5061	-0.057449702
127	0xbbc195a1	-0.0059077297
128	0x3ca717d2	0.0203971
129	0x3dae290a	0.08503921
130	0x3bcf4f33	0.00632658
131	0x3d53f2c7	0.051745202
132	0x3db79071	0.08963097
133	0xbda61913	-0.08110251
134	0x3bbb5dd3	0.005717972
135	0x3c233945	0.009962385
136	0xbc65ac6e	-0.014018161
137	0x3d08357b	0.033254128
138	0x3ca448aa	0.02005418
139	0x3d29e28f	0.04147583
140	0xbb88764e	-0.0041644936
141	0xbd931ed6	-0.07183616
142	0xba82b552	-0.000997225
143	0x3d8a448d	0.06751356
144	0x3d947d29	0.07250435
145	0xbd7b7b6d	-0.061397005
146	0x3d2258e9	0.039635573
147	0x3d0a11a0	0.033708215
148	0x3d037f8c	0.03210406
149	0x3cbfeb98	0.02342777
150	0xbd32ba1a	-0.04363451
151	0xbc94c0e5	-0.018158386
152	0x3d6bf817	0.057609644
153	0x3caa40c2	0.020782832
154	0x3cc0c5eb	0.023531875
155	0x3c24f234	0.010067511
156	0x3d9a3938	0.07530445
157	0xba860f04	-0.0010227864
158	0xbcc0dd49	-0.023543017
159	0x3c99f30b	0.01879265
160	0x3c062bb5	0.0081891315
161	0x3da68e62	0.08132626
162	0x3d8ac1fd	0.067752816
163	0xbb18b8f6	-0.0023303605
164	0x3d64da7a	0.055872418
165	0xbb37aea0	-0.0028027669
166	0xbc54e2d6	-0.012993535
167	0x3d933dce	0.07189523
168	0xbcde450f	-0.02713254
169	0x3c121bbc	0.008917745
170	0xbd66d8da	-0.05635915
171	0x3d0cd56a	0.034383215
172	0x3d5245a3	0.051335942
173	0xbd048a8b	-0.032358687
174	0xbd0c338f	-0.034228858
175	0x3baccdee	0.005273572
176	0x3db57f05	0.08862118
177	0xbd07c7ea	-0.033149637
178	0x3ceb7dfd	0.0287466
179	0xbd0a2e75	-0.03373571
180	0xbd52b447	-0.051441457
181	0x3c2b28d5	0.010446747
182	0xbcaab295	-0.020837108
183	0x3d8cdcde	0.068780646
184	0x3d2dbe65	0.042417902
185	0x3d295bd7	0.04134735
186	0xbc90cb66	-0.017675113
187	0x3d7c3015	0.061569292
188	0x3cb108e9	0.021610694
189	0x3d114ab1	0.035471622
190	0xbd9e7ed8	-0.07739037
191	0x3c3c9658	0.011510454
192	0xbca9eede	-0.020743784
193	0x3d349275	0.044084985
194	0xbd46fcb8	-0.048580855
195	0x3d967f9a	0.07348557
196	0x3ce75d46	0.028242718
197	0xba8452b4	-0.0010095448
198	0xbd84d392	-0.06485666
199	0x3d76a800	0.06021881
200	0xbd1f5170	-0.038896024
201	0xbd3e04f1	-0.04639143
202	0x3d3f3883	0.046684753
203	0x3d346311	0.04403979
204	0xbd26a7bc	-0.040687308
205	0x3d4d9a87	0.050196197
206	0x3d8e29c6	0.069415614
207	0xbd3e42e7	-0.04645052
208	0x3d24341c	0.040088758
209	0xbc945676	-0.018107634
210	0x3d6d5f37	0.057952132
211	0xbd954824	-0.0728915
212	0x3d88908f	0.06668197
213	0x3d77a9eb	0.06046478
214	0x3cee6114	0.029099025
215	0xbc5af2cc	-0.013363551
216	0x3d87a39d	0.06623004
217	0xbd6a54a1	-0.057209615
218	0xbc83a2d2	-0.01606885
219	0xbd89611c	-0.06707975
220	0xbc7c1754	-0.015386421
221	0xbd5f548e	-0.054523997
222	0x3d8b244e	0.06794034
223	0x3c7b1eda	0.01532718
224	0x3d58c07f	0.052917954
225	0xbd0845e0	-0.033269763
226	0xbd86f0d2	-0.065889016
227	0x3d7f90aa	0.06239382
228	0xbc965ff9	-0.01835631
229	0x3a8216e7	0.0009925038
230	0x3d6eb5c8	0.05827883
231	0x3c1858cb	0.009298514
232	0xba6376ec	-0.00086770835
233	0x3c5c2cb8	0.013438396
234	0x3c5dcf2b	0.013538162
235	0x3ca985d7	0.020693703
236	0xbd832011	-0.064026006
237	0x3d65bbc1	0.05608726
238	0x3d952405	0.07282261
239	0xbbb8a14b	-0.005634462
240	0xbd2f1e65	-0.042753596
241	0x3c35d402	0.01109791
242	0xbcd2494d	-0.025669718
243	0x3c424605	0.011857514
244	0x3bf5dbc1	0.0075030033
245	0xbd41285e	-0.047157638
246	0xbd37ddb1	-0.044889156
247	0x3daf742d	0.08567081
248	0xbce790ea	-0.028267343
249	0xbd311025	-0.043228287
250	0xbc855e9f	-0.01628047
251	0x3b888532	0.0041662687
252	0x3d534b52	0.051585503
253	0x3c7a5fd7	0.015281639
254	0xbcb42a6d	-0.021992886
255	0x3d469c9c	0.048489198

conv2.0.bias f4 [32]
0	0x3d84192b	0.06450113
1	0xbd1bad92	-0.038007326
2	0xbd2655d6	-0.040609203
3	0x3c7745c5	0.015092318
4	0x3d6ce16d	0.05783217
5	0xbcc42469	-0.023943143
6	0xbccfc3ec	-0.025361978
7	0x3cc2b7a0	0.0237692
8	0x3d91e163	0.07123067
9	0x3cb48301	0.022035124
10	0xba60ffaa	-0.0008583019
11	0x3bf46f8d	0.007459587
12	0xbd5e12ec	-0.054217264
13	0x3d972ece	0.07381974
14	0x3cb687ec	0.02228161
15	0xbb32cf11	-0.0027284066
16	0xbd83040e	-0.06397258
17	0x3d167369	0.036731157
18	0x3c2f4e6e	0.010699851
19	0x3c9a7455	0.0188543
20	0x3d4e08ee	0.050301485
21	0xbc9958bf	-0.018719075
22	0x3d82f12f	0.06393658
23	0x3d0d4b58	0.03449568
24	0x3d233c8e	0.03985267
25	0xbd8b0e0b	-0.06789788
26	0xbd60eb75	-0.05491205
27	0x3d907cc0	0.07055044
28	0xbd0f3121	-0.034958962
29	0x3cf51025	0.029914925
30	0x3c3fa3c7	0.011696762
31	0xbd5e10be	-0.054215185

conv2.1.weight f4 [32]
0	0x3f817de8	1.0116549
1	0x3f7aed3a	0.9801823
2	0x3f851636	1.0397403
3	0x3f79fd5e	0.9765223
4	0x3f78cd11	0.97187907
5	0x3f8065a2	1.0031016
6	0x3f7f574f	0.997426
7	0x3f7cbf64	0.9872954
8	0x3f801b1d	1.0008274
9	0x3f80e02f	1.0068415
10	0x3f7d0930	0.98842144
11	0x3f873b1f	1.0564917
12	0x3f82a3e2	1.0206263
13	0x3f89e5f2	1.0773299
14	0x3f7405ad	0.9532116
15	0x3f845fd7	1.0341748
16	0x3f8a5ab9	1.0808936
17	0x3f7de2b1	0.9917403
18	0x3f89e2e9	1.0772372
19	0x3f7a5de8	0.9779954
20	0x3f7c7e5a	0.986303
21	0x3f7d348c	0.98908305
22	0x3f8a1fee	1.0790994
23	0x3f836fe7	1.0268525
24	0x3f8530e9	1.0405551
25	0x3f7a00f1	0.97657686
26	0x3f8107ef	1.0080546
27	0x3f7181c1	0.94338614
28	0x3f804cc5	1.0023428
29	0x3f73c1aa	0.9521738
30	0x3f82786f	1.0193003
31	0x3f88299a	1.0637696

conv2.1.bias f4 [32]
0	0xbc7d1eb9	-0.015449219
1	0xbcce9e76	-0.025222044
2	0xbca08f13	-0.019599473
3	0xbc2b0c63	-0.010439965
4	0x3d666b36	0.056254588
5	0xbba3a976	-0.0049945666
6	0x3c07eef2	0.008296715
7	0xbb58602f	-0.0033016314
8	0xbbedd8fb	-0.007258532
9	0x3caf38ee	0.02138945
10	0x3bf35192	0.0074254954
11	0xbc88ebe9	-0.016714053
12	0xbae1ed22	-0.0017236809
13	0xbd371dc9	-0.04470614
14	0x3d4c4c9f	0.04987776
15	0x3c912157	0.017716093
16	0x3c071bac	0.008246344
17	0xbbb2cb62	-0.005456374
18	0xbd5beb25	-0.05369105
19	0xbc23616f	-0.00997196
20	0x395b37b1	0.00020906214
21	0x3cf54ded	0.029944384
22	0x3c60afe4	0.013713811
23	0x3d1d15c5	0.03835084
24	0x3ceaba42	0.028653268
25	0xb9b5f733	-0.00034707188
26	0x3c5e529b	0.013569499
27	0xbbb0fcb1	-0.005401217
28	0x3cc5e808	0.024158493
29	0x3c0f2ec8	0.008739181
30	0x3b2f3331	0.0026733393
31	0xbc83d821	-0.01609427

conv2.1.running_mean f4 [32]
0	0xbc25f56e	-0.010129316
1	0x3eaf336f	0.34218928
2	0xbe9db520	-0.3080225
3	0x3eba2fea	0.3636468
4	0x3e136673	0.1439455
5	0xbe1641be	-0.14673516
6	0xbe18fe3a	-0.1494073
7	0xbe2cb61d	-0.16866346
8	0x3e05c6fd	0.1306419
9	0xbdfd7f6d	-0.1237782
10	0xbe0b966f	-0.13631605
11	0xbecfb41f	-0.4056711
12	0x3cefc101	0.029266836
13	0x3db91da5	0.09038857
14	0x3eea27ce	0.45733494
15	0xbe0ce185	-0.13757904
16	0xbec2c7a9	-0.38042954
17	0xbdd59944	-0.10429624
18	0xbea728f2	-0.32648426
19	0x3dfd8fe8	0.123809636
20	0xbd4fd902	-0.050744064
21	0x3e0311ac	0.1279971
22	0xbdc80ad0	-0.09767687
23	0xbe9fb68a	-0.31193954
24	0xbe157cb9	-0.14598359
25	0x3e311eb5	0.1729687
26	0xbe7d6d78	-0.2474879
27	0xbd036a9c	-0.032084092
28	0xbe5a9aff	-0.21348189
29	0x3ee50bf3	0.4473568
30	0xbe0afcb7	-0.13572966
31	0xbe02e0f3	-0.12781124

conv2.1.running_var f4 [32]
0	0x3e514b1a	0.20438805
1	0x3fbe56c3	1.4870228
2	0x3efec030	0.49756002
3	0x3f828e4b	1.0199674
4	0x3effe592	0.49979836
5	0x3ee249d1	0.44196942
6	0x3ec70acb	0.38875422
7	0x3e538822	0.206574
8	0x3e7f081f	0.24905442
9	0x3eba8703	0.3643113
10	0x3e650a06	0.22367105
11	0x4006bc5a	2.105246
12	0x3ea96ebb	0.33092293
13	0x3e3ed38e	0.18635389
14	0x3f9eb2e1	1.239834
15	0x3e6d6d61	0.23186256
16	0x3ed93a40	0.42427254
17	0x3f20ca17	0.62808365
18	0x3f5f796d	0.87294656
19	0x3ef4e303	0.47829446
20	0x3ed7383c	0.4203509
21	0x3eebf92d	0.46088544
22	0x3ef46970	0.47736692
23	0x3efdd9d0	0.4958024
24	0x3f24be28	0.64352655
25	0x3ed39245	0.41322532
26	0x3ec351c3	0.38148317
27	0x3e93c8c7	0.28864118
28	0x3e62c873	0.22146778
29	0x3ff208b4	1.8908906
30	0x3e96e058	0.29468036
31	0x3e9156fe	0.28386682

conv3.0.weight f4 [64, 32, 3, 3]
0	0x3cbe9cf3	0.023268199
1	0x3b7d4900	0.0038648248
2	0x3cc78554	0.024355568
3	0x3be14b38	0.006875422
4	0x3c9e1b38	0.019300088
5	0x3cad96b8	0.021190032
6	0x3bae15cd	0.0053126574
7	0x3d5a2910	0.053261817
8	0x3d5cc20e	0.053896002
9	0x3d1c2fc4	0.03813149
10	0xbbc80ceb	-0.0061050556
11	0xbd2ca701	-0.042151455
12	0xbcbfc589	-0.023409622
13	0x3cce2369	0.02516337
14	0x3d2e5dcb	0.042569917
15	0x3d139523	0.0360309
16	0x3c40a640	0.011758387
17	0x3cb3e4d4	0.0219597
18	0xbc1577b2	-0.009122776
19	0xbcc122b4	-0.023576118
20	0x3d574907	0.05255988
21	0x3d01e272	0.031710096
22	0x3cc8228b	0.024430534
23	0x3d020d28	0.031750828
24	0xbc4bc0cc	-0.012436103
25	0x3cfa575f	0.03055924
26	0xbca89c6f	-0.020582406
27	0xbd59187f	-0.053001877
28	0xbc1faae6	-0.009745335
29	0xbc8cd2eb	-0.017190417
30	0xbbded4f4	-0.0068002883
31	0x3c0cd84b	0.00859649
32	0x3b7e603b	0.0038814682
33	0x3c278d61	0.010226578
34	0x3cd29a8f	0.025708465
35	0x3b9d429a	0.0047991993
36	0x3d352fb4	0.044234946
37	0x3d17c8c1	0.03705669
38	0x3c281b18	0.010260366
39	0x3d462bc3	0.04838158
40	0xbc51aaf3	-0.012797105
41	0x3d1795e2	0.037008174
42	0x3d1f43d2	0.038883038
43	0x3ce2477c	0.027621977
44	0x3d5fa676	0.05460211
45	0xbb7d9cb8	-0.0038698148
46	0xbc6f0175	-0.01458775
47	0xbca5ddda	-0.020247389
48	0x3d8e6b65	0.06954078
49	0x3d60f34e	0.054919533
50	0xbd5263b6	-0.051364623
51	0xbc953b1a	-0.018216658
52	0xbd0cebbc	-0.0344045
53	0xbb0e9d9b	-0.002176142
54	0xbc84890e	-0.016178634
55	0xbb36ca08	-0.0027891416
56	0xbb36c5a0	-0.002788879
57	0x3d1dcbb7	0.038524356
58	0x3cc87f5f	0.024474798
59	0x3c8a44c0	0.016878486
60	0x3d91a536	0.071115896
61	0xbca1b5a1	-0.019739928
62	0x3d5fb2e1	0.05461395
63	0x3af22950	0.0018475447
64	0x3c6a2ac8	0.014292426
65	0x3b20c55b	0.0024531696
66	0x3d26f45c	0.040760383
67	0x3a423b87	0.0007409383
68	0x3c4f1a83	0.012640598
69	0x3af118dd	0.0018394251
70	0xbc8cce02	-0.017188076
71	0x3d6ded6d	0.058087755
72	0x3d08073c	0.033210024
73	0x3d651af0	0.055933893
74	0x3cec96f3	0.028880572
75	0x3d2af55e	0.041737907
76	0x3cf865d8	0.030322
77	0xbd2ebcc6	-0.042660497
78	0xbc6876e0	-0.014188498
79	0x3d15e322	0.036593564
80	0x3d6ba29f	0.057528134
81	0xbcbcbcdd	-0.023039276
82	0x3cccf4dd	0.025019104
83	0xbc6416c7	-0.013921446
84	0xbd4faa3f	-0.05069947
85	0x39e6da50	0.00044031674
86	0x3cd662a0	0.026170075
87	0x3d3a5aba	0.04549668
88	0x3929900d	0.00016170759
89	0x3d6f75ec	0.05846207
90	0x3ca600e5	0.020264098
91	0x3aad9576	0.0013243395
92	0xbd91728b	-0.071019255
93	0x3d5d081d	0.053962816
94	0xbcd64324	-0.026155062
95	0xbcd1960b	-0.025584241
96	0x3db14fc2	0.08657791
97	0x3d20bb56	0.039241157
98	0xbccaf83c	-0.02477657
99	0x3b6f97b2	0.0036558923
100	0x3d20b879	0.039238427
101	0x3cca7726	0.024715018
102	0x3d33957a	0.043843724
103	0x3db49dea	0.08819182
104	0x3d666e05	0.056257267
105	0xbd2367ac	-0.03989379
106	0x3d5d96fd	0.05409907
107	0xbd521540	-0.051289797
108	0xbb4c9b25	-0.0031220403
109	0x3d209870	0.039207876
110	0x3d57a178	0.052644223
111	0x3c9826c3	0.01857317
112	0x3da0f527	0.07859259
113	0x3c17ba5c	0.00926074
114	0xbced2600	-0.028948784
115	0xbca12b9c	-0.019674115
116	0x3d08787e	0.033318035
117	0x3c179dd1	0.009253935
118	0xbc929521	-0.017893376
119	0xbd3f81e1	-0.04675472
120	0x3d02b939	0.031914923
121	0x3cc01bc1	0.023450734
122	0x3d40fca1	0.047115926
123	0x3cc8fbbf	0.024534104
124	0x3cbb5bef	0.022870986
125	0xbdb626a1	-0.08894087
126	0x3d03ab28	0.03214565
127	0x3cf953f4	0.03043554
128	0x3d277a54	0.040888146
129	0x3d7834f9	0.060597394
130	0x3d7a8453	0.06116135
131	0xbd20fa9e	-0.039301507
132	0x3d19d79b	0.037559133
133	0x3d3c2ce8	0.045941263
134	0x3d20118e	0.03907924
135	0xbaabe5f8	-0.0013114801
136	0x3d854929	0.06508095
137	0x3b362c7a	0.0027797506
138	0x3d48643d	0.04892372
139	0xbbd4c64e	-0.0064933663
140	0xbd207efc	-0.0391836
141	0x3d8f0360	0.069830656
142	0x3d487b24	0.04894556
143	0xbc972f7a	-0.018455256
144	0x3d098541	0.033574346
145	0xbd2aedef	-0.041730817
146	0x3d383117	0.04496869
147	0x3d334f6f	0.043776926
148	0xbd30b12f	-0.043137725
149	0xbd594ff8	-0.05305478
150	0xbbd3d4bc	-0.006464569
151	0x3cde7b3a	0.027158368
152	0xbbb1ca67	-0.0054257396
153	0x3d1c1392	0.0381046
154	0x3d434cb2	0.047680564
155	0x3d3ae751	0.045630757
156	0x3c2d7155	0.0105861025
157	0xbd0b507b	-0.0340123
158	0xbc9ee22c	-0.019394957
159	0x3b92334f	0.004461683
160	0x3bf62747	0.0075120064
161	0xbd163444	-0.036670938
162	0x3d85ac77	0.06527036
163	0x3d92c2ed	0.071660854
164	0xbd16c9d3	-0.03681357
165	0xbc0f11da	-0.0087322835
166	0xbd00ee8f	-0.031477507
167	0xbc08cacf	-0.008349135
168	0xbd146a7e	-0.03623437
169	0x3b4cf085	0.003127129
170	0xbcc35e6e	-0.023848739
171	0x3bba18c5	0.0056792223
172	0x3d147582	0.036244877
173	0xbbd8eb83	-0.006619872
174	0xbc0e593d	-0.008688268
175	0xbd09b1c5	-0.0336168
176	0xbc648988	-0.013948806
177	0xbcc085cd	-0.023501301
178	0x3c69e4a3	0.014275703
179	0x3d0d7016	0.03453072
180	0xbc90e5be	-0.017687675
181	0x3d3c37b3	0.045951556
182	0xbc463d86	-0.012099629
183	0x3c96c358	0.018403694
184	0xbcd74671	-0.026278706
185	0x3d15dedf	0.0365895
186	0x3d9133ec	0.070899814
187	0x3d63c9fb	0.055612545
188	0x3d889b49	0.06670243
189	0x3cfc2364	0.030778594
190	0xbcd693b5	-0.02619348
191	0x3d624c1f	0.055248376
192	0x3c1cb931	0.009565637
193	0xbd2450f8	-0.04011628
194	0xbcf4865b	-0.029849222
195	0xbd08ea49	-0.033426557
196	0x3c22ef97	0.009944818
197	0x3d1ef07e	0.03880357
198	0x3d471712	0.048605986
199	0xba0b0e0e	-0.00053045235
200	0x3d830e45	0.06399206
201	0x3cf99e85	0.030471096
202	0x3ce5dde3	0.028059905
203	0xbc42568e	-0.011861457
204	0xbc1260f9	-0.008934253
205	0x3cbc27ef	0.02296826
206	0xbcf229fd	-0.029561037
207	0x3c907986	0.017636072
208	0x3d3d0350	0.046145737
209	0xbd24acd0	-0.04020387
210	0xbd420529	-0.047368202
211	0x3bf66fa4	0.007520633
212	0xba61f979	-0.0008620243
213	0x3d8f4a13	0.069965504
214	0x3d14a47c	0.036289677
215	0x3ca3513e	0.0199362
216	0xbc6894fe	-0.014195679
217	0x3c473281	0.012158037
218	0x3cccb667	0.02498932
219	0x3ce3e8a7	0.027820898
220	0xbc72d951	-0.01482232
221	0xbd8e807e	-0.06958102
222	0x3d82c33c	0.06384894
223	0x3ca095b5	0.019602636
224	0x3d095482	0.03352786
225	0x3d623c0e	0.055233054
226	0x3d2f5205	0.04280283
227	0x3c3e5de7	0.011619068
228	0x3cbf9819	0.023387956
229	0xbc73cd75	-0.014880528
230	0xbbe607e2	-0.0070199827
231	0x3da8acfa	0.08236118
232	0x3c8d6c1b	0.017263463
233	0xbc85a47d	-0.016313786
234	0xbc7d5ee6	-0.01546452
235	0x3ccdc420	0.025117934
236	0x3adeed63	0.0017008003
237	0x3cbe9b29	0.023267346
238	0xbce3ae17	-0.027792973
239	0x3b8e70a7	0.0043469253
240	0xbc2d912a	-0.010593692
241	0x3b615c3e	0.0034387256
242	0x3d2db0bd	0.04240488
243	0x3d5b4757	0.05353483
244	0x3d5f3b42	0.054499872
245	0xbc31d82c	-0.010854762
246	0x3ca4b8f6	0.020107727
247	0x3ba2c20c	0.00496698
248	0x3c559776	0.013036599
249	0x3d061bff	0.032741543
250	0x3cacd2da	0.021096636
251	0xbcb7b657	-0.022425814
252	0xbc5deb3c	-0.013544854
253	0xbd12339e	-0.035693757
254	0xbd0ba4a3	-0.034092557
255	0x3b1d80e0	0.0024033114

conv3.0.bias f4 [64]
0	0xbc2fa70b	-0.0107209785
1	0xbd0da356	-0.034579597
2	0xbd1fe0d8	-0.039032787
3	0x3d2ec586	0.04266884
4	0xbd206b7e	-0.039165013
5	0x3ce925fc	0.028460495
6	0xbc40dfe4	-0.01177213
7	0xbcca5c78	-0.024702296
8	0xbc8a8e6c	-0.016913615
9	0xbd62c719	-0.055365656
10	0xb9c3fcf6	-0.0003738177
11	0x3a1acc07	0.0005905036
12	0xbd41fe9d	-0.04736196
13	0x3c43ee28	0.011958636
14	0x3d4b7b24	0.049677983
15	0x3cc3533a	0.023843396
16	0x3d022fe3	0.03178395
17	0xbd43f350	-0.047839463
18	0xbc4a2f41	-0.012340368
19	0xbd3f0f5b	-0.046645503
20	0x3c9754b3	0.018473005
21	0x3c9f82a2	0.01947147
22	0xbc813f2d	-0.015777195
23	0x3d516530	0.05112189
24	0xbd1cfc7c	-0.038326725
25	0x3d04040d	0.032230426
26	0xbd45702a	-0.04820267
27	0xbd35723b	-0.04429839
28	0x3a2ba767	0.0006548077
29	0xbce1c773	-0.027560925
30	0xbd5d0f3a	-0.0539696
31	0x3c9b40d5	0.018951813
32	0xbc91eee3	-0.017814105
33	0x3ca53b52	0.020169888
34	0xbd31be10	-0.04339415
35	0x3d49f455	0.04930528
36	0x3cc2ad80	0.023764372
37	0x3cf36905	0.029713163
38	0x3c51696d	0.012781483
39	0xbd2ead62	-0.04264582
40	0x3d0e3c57	0.034725513
41	0xbd6752e9	-0.056475554
42	0xbd5ad7c0	-0.05342841
43	0xbd27581c	-0.040855512
44	0xba8951b6	-0.0010476622
45	0xbcee34f9	-0.029077994
46	0x3b595959	0.0033164828
47	0x3d1649af	0.036691364
48	0xbd138c63	-0.036022555
49	0x3cdceb52	0.026967678
50	0xbc70b62b	-0.01469187
51	0xbc6b99c2	-0.01437992
52	0xbd509a31	-0.0509283
53	0xbd74cb60	-0.059764266
54	0xbd09ef87	-0.033675697
55	0x3ce9c41d	0.028535897
56	0xbac36fb1	-0.0014910606
57	0x3d2a04e8	0.041508585
58	0xbc999a5b	-0.01875036
59	0xbd4ffe45	-0.0507796
60	0xbc97c1b3	-0.01852498
61	0xbd17c2d2	-0.03705103
62	0xbc8ef24c	-0.01744952
63	0xbd2493b3	-0.04017992

conv3.1.weight f4 [64]
0	0x3f6f3af6	0.9344934
1	0x3f743c8e	0.954049
2	0x3f850499	1.0392028
3	0x3f80dde8	1.006772
4	0x3f867b68	1.0506411
5	0x3f7f6c5b	0.9977471
6	0x3f84500c	1.0336928
7	0x3f72e0dd	0.94874364
8	0x3f86bef5	1.0527025
9	0x3f8a1d09	1.0790111
10	0x3f849951	1.0359288
11	0x3f82f610	1.0231342
12	0x3f82b139	1.0210334
13	0x3f82ca60	1.021801
14	0x3f8341d8	1.0254469
15	0x3f8346a2	1.025593
16	0x3f862332	1.0479491
17	0x3f866b6c	1.0501533
18	0x3f6e7a4a	0.9315535
19	0x3f836ffe	1.0268552
20	0x3f713afc	0.9423063
21	0x3f857f50	1.0429478
22	0x3f745878	0.9544749
23	0x3f8327c0	1.0246506
24	0x3f85359d	1.0406986
25	0x3f75ec12	0.9606334
26	0x3f8136bb	1.0094827
27	0x3f7120ff	0.94190973
28	0x3f8207f4	1.0158677
29	0x3f6e8e69	0.9318605
30	0x3f8243dd	1.017696
31	0x3f7072de	0.93925273
32	0x3f8333eb	1.0250219
33	0x3f80b5bd	1.0055462
34	0x3f88d05c	1.0688586
35	0x3f6d1e2b	0.9262416
36	0x3f85a828	1.0441942
37	0x3f831774	1.0241532
38	0x3f864ebe	1.049278
39	0x3f7067ae	0.939082
40	0x3f8005e9	1.0001804
41	0x3f807e8d	1.003862
42	0x3f84b354	1.0367227
43	0x3f80a8c6	1.0051506
44	0x3f8561a6	1.0420425
45	0x3f80ed3f	1.0072402
46	0x3f83e236	1.0303409
47	0x3f710eb9	0.9416309
48	0x3f866eea	1.0502598
49	0x3f83b8e8	1.0290804
50	0x3f82542d	1.0181938
51	0x3f7522b3	0.9575607
52	0x3f87ba88	1.06038
53	0x3f851eab	1.0399984
54	0x3f83595a	1.0261643
55	0x3f821518	1.0162687
56	0x3f83c4f7	1.0294484
57	0x3f85cd61	1.0453302
58	0x3f821186	1.0161598
59	0x3f80b11f	1.0054053
60	0x3f84e611	1.0382711
61	0x3f83eb2e	1.0306146
62	0x3f845e0d	1.0341202
63	0x3f81041c	1.0079379

conv3.1.bias f4 [64]
0	0x3cc79371	0.024362298
1	0xbc8e5775	-0.017375687
2	0x3c0515f9	0.0081229145
3	0x3c3e4078	0.01161205
4	0xbc83e243	-0.016099101
5	0xbb4551c8	-0.003010856
6	0x3b301181	0.0026865902
7	0x3c2209e1	0.009890051
8	0xbc4276bc	-0.011869129
9	0xbbc33eaf	-0.0059584
10	0x3ca45a63	0.020062631
11	0xb9bdf71d	-0.00036233003
12	0xbc684a50	-0.014177874
13	0xbb7fe1db	-0.0039044532
14	0x3a32b879	0.00068176497
15	0xbcc5c939	-0.024143802
16	0xbb9df0fc	-0.0048199873
17	0xbc99aad1	-0.01875821
18	0x3d1d3c72	0.038387723
19	0xbc3cba43	-0.011519018
20	0xbb40c01e	-0.0029411386
21	0x3c8d222f	0.017228214
22	0xbceb6d1b	-0.028738549
23	0xbc9708c4	-0.018436797
24	0x3bdae90f	0.006680615
25	0x3c60c2d7	0.013718328
26	0xbd12a8e0	-0.035805583
27	0xbd3ad9fc	-0.045618042
28	0x3a7b933b	0.0009596829
29	0xbb56dc44	-0.0032785097
30	0xbc6729b1	-0.014109061
31	0xbba6c52c	-0.0050894227
32	0xbb54e894	-0.003248726
33	0xbaeacc4f	-0.0017913672
34	0xbbe4e870	-0.0069857165
35	0x3d5ca063	0.053863894
36	0xbb4fc5f1	-0.0031703676
37	0x3ae80f80	0.0017704815
38	0x3b10f955	0.002212127
39	0xbcbff857	-0.023433847
40	0x3c7922ec	0.01520608
41	0x3b7f9051	0.0038995931
42	0xbc2b8098	-0.010467671
43	0xbd061818	-0.03273782
44	0xbc934007	-0.017974867
45	0xbb79e73b	-0.003813221
46	0x3cba12c5	0.022714028
47	0x3cd7d8f3	0.026348567
48	0x3b77f723	0.0037836514
49	0xbc9cf784	-0.019160993
50	0xbb866e92	-0.0041025365
51	0x3cfa7834	0.030574895
52	0x3c8b5f1c	0.017013125
53	0xbc63fe9d	-0.013915685
54	0xbc43e864	-0.011957262
55	0xbb3af736	-0.0028528697
56	0xbcbdd5ab	-0.023173174
57	0x3b56e5fb	0.0032790888
58	0xbb9860e4	-0.004650222
59	0xbca1132d	-0.019662464
60	0x3bb1d4ba	0.0054269703
61	0x3c91d21d	0.017800385
62	0xbc2cdc1c	-0.010550525
63	0x3a73534b	0.0009282126

conv3.1.running_mean f4 [64]
0	0x3f4b751a	0.7947556
1	0x3e89a92e	0.26886886
2	0xbe287f1d	-0.1645474
3	0x3d9aad2b	0.075525604
4	0xbe9679c7	-0.29389784
5	0xbe0e5854	-0.13900882
6	0xbe943493	-0.2894636
7	0x3f4b3224	0.79373384
8	0xbeb7a0c9	-0.35864857
9	0xbe6d0be5	-0.23149069
10	0xbe5a5f7c	-0.21325487
11	0xbe22e49e	-0.15907523
12	0xbe41c8c7	-0.18924247
13	0xbe37bba3	-0.17942671
14	0xbdba2b53	-0.09090295
15	0xbe1c2eff	-0.15252303
16	0xbe5ca794	-0.21548301
17	0xbe39b075	-0.1813372
18	0x3f081fe1	0.53173643
19	0xbe564c05	-0.20927437
20	0x3ea9d2e5	0.33168712
21	0xbf00f06d	-0.5036686
22	0x3f05239b	0.52007455
23	0xbd9c02b9	-0.07617707
24	0xbeaeca58	-0.3413875
25	0x3ef7c93a	0.4839571
26	0xbea3ed26	-0.32016867
27	0x3ebcc281	0.36867145
28	0xbec2cd03	-0.38047037
29	0x3f488d92	0.7834102
30	0xbebedb9a	-0.37276918
31	0x3f10167e	0.5628432
32	0x3d01df27	0.031706955
33	0xbe1cc591	-0.1530974
34	0xbe55f4e7	-0.20894204
35	0x3ea7f81b	0.32806477
36	0xbea7c90b	-0.3277057
37	0xbe7ef207	-0.24897014
38	0xbca9d101	-0.020729544
39	0x3f05421a	0.5205399
40	0xbeaa2dd0	-0.33238077
41	0xbeec73ae	-0.46182007
42	0xbdc991ab	-0.09842237
43	0xbea688d3	-0.32526264
44	0xbdf4ce2c	-0.11953387
45	0xbe8ebbb6	-0.27877587
46	0xbe6f02c3	-0.23340897
47	0x3f50b21f	0.8152179
48	0xbea7569e	-0.3268327
49	0xbe7d8a02	-0.24759677
50	0xbeae1070	-0.33996916
51	0xbcdf14ce	-0.0272316
52	0xbe874fec	-0.26428163
53	0xbe414990	-0.18875718
54	0xbd426c56	-0.0474666
55	0xbe9335de	-0.28752035
56	0xbe4c7a03	-0.19968419
57	0xbe8d46c6	-0.27593058
58	0xbe95008b	-0.29101977
59	0xbe9f2c7c	-0.31088626
60	0x3d1a0aea	0.037608065
61	0xbf1739f7	-0.5907282
62	0xbe2fae94	-0.1715644
63	0xbe728f7f	-0.23687552

conv3.1.running_var f4 [64]
0	0x400a0ff2	2.1572232
1	0x3f943644	1.157906
2	0x3e9322fd	0.2873763
3	0x3e5594bf	0.20857523
4	0x3e790388	0.24317753
5	0x3f19f811	0.60144144
6	0x3ea24790	0.31695223
7	0x3fcc0f71	1.5942212
8	0x3e8a443a	0.27005178
9	0x3e2b72ad	0.16742964
10	0x3eafd925	0.34345356
11	0x3f04d190	0.51882267
12	0x3e76c100	0.24097061
13	0x3e7659db	0.24057715
14	0x3e82c356	0.25539654
15	0x3ed9053c	0.42386806
16	0x3e9fd7d9	0.31219366
17	0x3df0686a	0.117386654
18	0x3f9fe9e6	1.2493255
19	0x3f041f13	0.51609915
20	0x3f761d1a	0.96138155
21	0x3ecc562e	0.399095
22	0x3fdfb27f	1.7476348
23	0x3e119dec	0.14220399
24	0x3e11ef84	0.14251524
25	0x3fb8c83a	1.4436104
26	0x3e867edf	0.2626867
27	0x402d51f3	2.7081268
28	0x3eb67e7a	0.3564337
29	0x3fd84424	1.6895795
30	0x3e528670	0.20559096
31	0x3fb6edbe	1.4291303
32	0x3e5cc6e2	0.21560243
33	0x3eb2ae89	0.34898785
34	0x3e63389c	0.22189564
35	0x3f076261	0.5288449
36	0x3e8332fb	0.25624833
37	0x3e78d05f	0.24298237
38	0x3ec71a78	0.38887382
39	0x3fe0f3ee	1.7574441
40	0x3e4e1cd8	0.2012819
41	0x3ed7d76c	0.4215654
42	0x3e5cad6f	0.21550535
43	0x3f09a6ef	0.53770345
44	0x3e5cbc87	0.21556292
45	0x3ecf26b1	0.40459207
46	0x3ecaba78	0.3959539
47	0x402e9480	2.7278137
48	0x3eac22a8	0.3362019
49	0x3eb27cea	0.34860927
50	0x3ea510de	0.3223943
51	0x3ecda5a2	0.4016543
52	0x3e16507f	0.14679144
53	0x3e4df0d0	0.20111394
54	0x3e300723	0.17190222
55	0x3ec185cd	0.37797394
56	0x3e9aec02	0.30258185
57	0x3e653a33	0.22385482
58	0x3eb28705	0.34868637
59	0x3e3d7bab	0.18504207
60	0x3e4be2ef	0.19910787
61	0x3eafd40a	0.3434146
62	0x3e3ebfe3	0.18627886
63	0x3e765bcc	0.24058455

conv4.0.weight f4 [128, 64, 3, 3]
0	0xbce41f0f	-0.027846841
1	0x3ce91827	0.0284539
2	0x3b0dd87e	0.0021643932
3	0x3d147062	0.03623999
4	0x3c47a89c	0.012186196
5	0xbcc4560e	-0.023966815
6	0x3c2b527a	0.010456676
7	0x3c0d4212	0.008621709
8	0x3cebb3b4	0.028772213
9	0x3b8185e6	0.0039527295
10	0xbcf07291	-0.029351505
11	0xbce717f4	-0.028209664
12	0x3cd4b36d	0.025964463
13	0x3d15dc5f	0.036587115
14	0xbcb146db	-0.021640232
15	0xbcce20b5	-0.02516208
16	0x3ccf78cd	0.025326157
17	0x3c8d0e9c	0.01721888
18	0x3c4df6b5	0.012571027
19	0xbd18e4a0	-0.03732741
20	0x3cd94627	0.026522709
21	0xbc107df4	-0.008819092
22	0xbbd779ca	-0.0065757977
23	0x3cfb08d9	0.030643867
24	0x3cc33a9e	0.023831662
25	0x3d373cba	0.044735648
26	0xbc4c3d9e	-0.012465863
27	0xbcdc4ba1	-0.026891531
28	0xbb8085fa	-0.0039222213
29	0xbd237130	-0.039902866
30	0x3c605938	0.013693146
31	0x3cde975e	0.027171787
32	0xbcba016c	-0.022705756
33	0x3d175b42	0.036952265
34	0x3c66e1dd	0.014091936
35	0xbc4355f5	-0.011922349
36	0x3c90e723	0.01768834
37	0xbc1e521d	-0.009663132
38	0xbcac258e	-0.021014001
39	0xbc006d22	-0.007838519
40	0xbc0772d1	-0.00826712
41	0x3c1a5ae5	0.009421085
42	0xbbb1c78e	-0.0054254
43	0xbcb6dcb7	-0.022322042
44	0x3b024b96	0.0019881479
45	0xba5e2aca	-0.0008475004
46	0x3cf7f10f	0.030266313
47	0xbcb9e873	-0.022693848
48	0xbce3b304	-0.027795322
49	0x3990cb01	0.0002761707
50	0x3b1d3d4d	0.0023992837
51	0x3bf574f2	0.0074907476
52	0xbc5a76a5	-0.013333951
53	0x3d249a6d	0.040186334
54	0xbcf9dcaa	-0.030500729
55	0xbd4af503	-0.049550068
56	0xbc435a90	-0.011923447
57	0x3d6c5bbc	0.057704672
58	0x3d400426	0.046878956
59	0xbce2ac5a	-0.027670074
60	0x3d17174c	0.036887452
61	0x3cc01c89	0.023451107
62	0x3c73e728	0.014886655
63	0x3d2d007f	0.0422368
64	0xbd09689d	-0.033547033
65	0xbd2d39e1	-0.042291526
66	0xbd355f83	-0.04428054
67	0x3ca70736	0.02038918
68	0x3c6b3741	0.014356435
69	0xbce96c72	-0.028494094
70	0xbc54deab	-0.012992541
71	0xbcdd6a5f	-0.02702826
72	0x3c785e6b	0.01515923
73	0x3c22a196	0.00992622
74	0x3d1cd139	0.038285468
75	0xbc577dd9	-0.013152563
76	0x3d45700e	0.048202567
77	0x3c3ff58c	0.011716258
78	0xbd4123c0	-0.047153234
79	0xbcf15a70	-0.02946207
80	0xbd1b580b	-0.03792576
81	0x3bc157ca	0.005900358
82	0xbcbfd03d	-0.023414725
83	0x3cac9d1e	0.021071013
84	0x3bd35338	0.0064491294
85	0x3c75c9c5	0.015001719
86	0x3a48ca90	0.00076595787
87	0x3c32738b	0.010891805
88	0x3d44f7d5	0.048087914
89	0x3cf1913d	0.0294882
90	0xbcabd140	-0.020973802
91	0xbd168c4f	-0.036754902
92	0x3d1f40de	0.03888022
93	0xbcd01345	-0.025399813
94	0xbc5685a3	-0.013093385
95	0xbbb169d4	-0.005414227
96	0x3ca9854c	0.020693444
97	0xbb5facbf	-0.0034130064
98	0x3d1673ab	0.036731403
99	0x3c5fbc1e	0.0136556905
100	0x3ca6b554	0.020350136
101	0x3d2dc1cc	0.042421147
102	0xbb69c7f0	-0.003567215
103	0xbc2e0cf1	-0.010623203
104	0x3cde9c24	0.027174063
105	0xbd1dd620	-0.038534284
106	0x3aec60aa	0.0018034179
107	0xbcd6f111	-0.026237996
108	0xbd5db1b8	-0.054124564
109	0x3bd7f3fb	0.006590364
110	0x3c6a1455	0.014287074
111	0xbb494dee	-0.0030716616
112	0xbc8e954c	-0.017405175
113	0xbd0b2efb	-0.03398035
114	0x3d940168	0.07226831
115	0xbc1b52d6	-0.009480199
116	0x3d735974	0.05941148
117	0xbc11068e	-0.00885166
118	0x3d2a2c5c	0.04154621
119	0x3bc51b48	0.006015215
120	0x3ce4537b	0.027871838
121	0x3d13ae17	0.036054697
122	0xbcac2bc5	-0.021016965
123	0xbc8df38f	-0.017328052
124	0xbd6257ad	-0.055259395
125	0xbd06fc19	-0.032955263
126	0x3ceb1c5a	0.028700043
127	0xbcd06696	-0.025439542
128	0x3d500b27	0.050791886
129	0xbc5d22d0	-0.0134970695
130	0x3a11b318	0.0005557998
131	0x3ca9e6b0	0.020739883
132	0xbb362527	-0.002779314
133	0x3c277f87	0.010223276
134	0x3cc1a86f	0.023639886
135	0xbce6bf76	-0.028167468
136	0x3c6f36dd	0.014600483
137	0x3c8d6f06	0.017264854
138	0x3aa0b86f	0.0012261997
139	0x3c7a9861	0.015295119
140	0xbc04584a	-0.00807769
141	0xbd59a0a3	-0.05313171
142	0xbaee57cc	-0.0018184124
143	0xbd26896c	-0.0406584
144	0x3ce87833	0.028377628
145	0x3d7358a8	0.05941072
146	0xb752b881	-1.2559934e-05
147	0x3bb3cea7	0.0054872814
148	0xbcc12b8b	-0.023580333
149	0xbc27c654	-0.010240156
150	0xbcd4334f	-0.025903372
151	0xbcd7f1f3	-0.026360488
152	0xbd0bd138	-0.034135073
153	0xbd20c77e	-0.03925275
154	0x3cd8acc4	0.026449569
155	0x3c78e7d5	0.015191992
156	0xbc5cd6a9	-0.013478913
157	0xbc99dc38	-0.018781766
158	0x3c10ec57	0.00884541
159	0x3d4772db	0.04869352
160	0x3caf6180	0.021408796
161	0x3d17d9fb	0.037073117
162	0xbc501230	-0.012699649
163	0x3d18033d	0.037112463
164	0xbc79a28b	-0.015236507
165	0xbc80eee7	-0.015738918
166	0x3d126d97	0.035749044
167	0x3bc82929	0.0061084223
168	0xbcde2e38	-0.027121648
169	0xbc1dc8df	-0.009630411
170	0x3c04bacb	0.008101176
171	0xbbadc363	-0.005302833
172	0xbcbf5d16	-0.023359817
173	0x3c815bdc	0.015790872
174	0xbb839660	-0.004015729
175	0x3d39707b	0.045273285
176	0x3d3095e8	0.04311171
177	0x3a9aa395	0.0011798019
178	0x3c6d82bc	0.014496502
179	0x3bf73d0d	0.0075451196
180	0xbce3b1d7	-0.027794762
181	0xbc91d0b0	-0.017799705
182	0xbd36812c	-0.04455678
183	0x3ca315cd	0.019907856
184	0xbc868790	-0.016422063
185	0xba351860	-0.0006908234
186	0xbcc217aa	-0.023692925
187	0x3c4ec0b3	0.012619185
188	0xbc87e064	-0.01658649
189	0x3cd33a91	0.025784763
190	0x3d575e26	0.05258002
191	0x3d16ad5f	0.036786433
192	0x3ab88210	0.0014076848
193	0xbc490c70	-0.012271032
194	0x3cd325bd	0.025774831
195	0x3c758e49	0.014987537
196	0x3d4787c7	0.04871347
197	0xbbf27318	-0.007398974
198	0x3ce72335	0.02821503
199	0x3c829ef9	0.015944945
200	0x3cc497d3	0.023998177
201	0xbc539d70	-0.012915954
202	0xbc5e4360	-0.013565868
203	0x3cbccaa6	0.023045849
204	0xbcf59e31	-0.029982658
205	0xbb90c43a	-0.0044179233
206	0x3ab3eefb	0.0013727838
207	0xbc3593e7	-0.011082626
208	0x3d053837	0.032524314
209	0x3c0ce9c8	0.00860066
210	0xbc93cb75	-0.018041352
211	0x3bd94ce9	0.006631483
212	0xbc481d05	-0.01221395
213	0x3a6d4d3c	0.00090523413
214	0x3c8f07ac	0.017459713
215	0xbce0d1db	-0.027443817
216	0x3c1ad072	0.009449111
217	0x3b828c59	0.003984016
218	0x3d0f7dc0	0.035032034
219	0x3d540bf1	0.0517692
220	0x3c8a34dd	0.01687091
221	0x3bdafc4d	0.0066829086
222	0x3b7209ee	0.0036932188
223	0x3bee68d5	0.0072756805
224	0x3c7d5f82	0.015464665
225	0xbd007314	-0.031359747
226	0x3c9bba50	0.01900974
227	0xbd0f40ec	-0.034974024
228	0xbc247629	-0.010037937
229	0x3c844ce5	0.016149947
230	0x3c33fd1e	0.010985641
231	0xbc614c0e	-0.013751043
232	0x3c0b109c	0.008487847
233	0x3c1123ef	0.008858665
234	0x3c7cee09	0.015437611
235	0xbb3b8e7f	-0.002861887
236	0xbcb63757	-0.022243185
237	0x3b4ade3f	0.0030955223
238	0x3b47ebe7	0.00305056
239	0x3c87e5ff	0.016589163
240	0xbb427525	-0.0029671874
241	0xbd13d9c5	-0.036096353
242	0x3d151a67	0.036402132
243	0xbc8946f8	-0.016757473
244	0xbc97429a	-0.018464375
245	0x3cfd0d3c	0.0308901
246	0xbc5cbdbb	-0.01347297
247	0xbcceb011	-0.02523044
248	0x3ca47e72	0.020079825
249	0xbbde309a	-0.006780696
250	0x3c7c1793	0.01538648
251	0x3ca93dfe	0.020659443
252	0xbb6cc973	-0.0036130815
253	0x3c77d3d1	0.015126185
254	0x3d1b8875	0.037971932
255	0x3c889db6	0.016676765

conv4.0.bias f4 [128]
0	0xbaf569cf	-0.001872355
1	0xbc923eb2	-0.017852161
2	0xbcf92f53	-0.030418074
3	0xbccf3cf1	-0.025297614
4	0xbcea6519	-0.02861266
5	0xbd2a2850	-0.04154235
6	0x3c98087d	0.018558735
7	0x3c75b361	0.014996381
8	0xbd098262	-0.03357161
9	0x3cceebfb	0.025259009
10	0xbcc6eb67	-0.02428217
11	0x3ca92ff1	0.020652743
12	0xbc3c065d	-0.0114761265
13	0xbbb75641	-0.005594999
14	0x3cf40c66	0.029791068
15	0xbd23a85f	-0.039955493
16	0xbd193697	-0.037405577
17	0xbcdae502	-0.026720528
18	0xbafc738b	-0.0019260509
19	0xbc25802e	-0.010101361
20	0xbc661d07	-0.014045007
21	0xbd148702	-0.036261566
22	0x3d2767bd	0.040870417
23	0xbd1f4b2f	-0.03889006
24	0x3c6248b9	0.013811284
25	0xbca27370	-0.019830436
26	0xbcc09d9a	-0.02351265
27	0xbacd5130	-0.0015664455
28	0xbc0c69a4	-0.008570109
29	0x3d0c53ea	0.034259714
30	0x3d15fca1	0.03661788
31	0xbce40341	-0.027833583
32	0xbd289e0a	-0.041166343
33	0x3c7ae19b	0.015312578
34	0xbc4c1eaf	-0.012458487
35	0x3ab1dc20	0.0013569631
36	0x3c9366ba	0.01799332
37	0xbc0ba4c0	-0.008523166
38	0xbb8b372f	-0.0042485218
39	0x3d24f53a	0.04027293
40	0x3ceb4deb	0.028723678
41	0xbcd699d4	-0.026196398
42	0xbbc90a8d	-0.006135291
43	0x3c779c70	0.015112981
44	0x3bda0868	0.006653834
45	0x3c9cbbc2	0.019132499
46	0x3d22fe8d	0.03979354
47	0xbc018bbf	-0.007906853
48	0x3bdefb9a	0.0068048956
49	0xbd21202f	-0.039337333
50	0xbbf2f86f	-0.0074148695
51	0x3d0eb301	0.03483868
52	0x3b907205	0.0044081234
53	0x3b5b04e2	0.0033419658
54	0x3cb4d75c	0.022075348
55	0xbc9de354	-0.019273438
56	0xbcbb683b	-0.02287685
57	0x3d2287b2	0.03968019
58	0x3d0842c3	0.033266794
59	0x3d288bfa	0.041149117
60	0xbd1a99c9	-0.037744317
61	0xba844302	-0.0010090771
62	0x3bd993e6	0.0066399453
63	0xbc6bd212	-0.014393346
64	0x3b277b24	0.0025555575
65	0x3b238440	0.0024950653
66	0x3c38203f	0.011238157
67	0xbc9fa303	-0.01948691
68	0xbd016ca8	-0.031597763
69	0xbc59b61f	-0.01328805
70	0x3d2c9139	0.042130683
71	0x3c2992fb	0.010349984
72	0xbc0596c2	-0.008153619
73	0x3cbfb4f9	0.023401724
74	0x3c5daee6	0.013530469
75	0x3c88b67f	0.016688583
76	0x3cf59854	0.029979862
77	0x3cbe79fa	0.023251522
78	0x3c951c37	0.01820193
79	0x3cba6d63	0.022757238
80	0x3c312a8b	0.010813366
81	0xbcb9f748	-0.02270092
82	0xbc2532b1	-0.010082887
83	0x3c3609ed	0.011110765
84	0x3c8aace4	0.016928144
85	0xbbafd787	-0.005366269
86	0x3cc443e7	0.02395816
87	0x3cea67a5	0.028613875
88	0x3c8150a1	0.015785517
89	0xbd1d89f5	-0.038461644
90	0xbbdc2a83	-0.006718935
91	0xbd13f7ab	-0.036124866
92	0xbcf77609	-0.03020765
93	0xbc43844e	-0.011933399
94	0xbc6a143e	-0.014287053
95	0xba8f0607	-0.001091183
96	0x3c96b595	0.018397132
97	0xbd1b147b	-0.03786133
98	0x3c3769be	0.0111946445
99	0x3d19bb2b	0.037532013
100	0xbc5c8128	-0.013458528
101	0x3c782c0b	0.015147219
102	0x3c2cc31a	0.010544563
103	0x3d0b1d1d	0.03396331
104	0x3ccd4784	0.025058515
105	0xbcfffca5	-0.0312484
106	0x3d2482c3	0.040163767
107	0xbcea3b30	-0.028592676
108	0xbca3180c	-0.019908927
109	0xbc9cf940	-0.01916182
110	0x3bd83d6f	0.0065991203
111	0x3a613e11	0.00085923175
112	0xbac5f4f2	-0.0015102907
113	0x3a83c729	0.0010053861
114	0x3c90a332	0.017655943
115	0x3d258f17	0.040419664
116	0xbc42d3de	-0.011891333
117	0xbbb6368f	-0.005560703
118	0x3d21d405	0.03950884
119	0x3ca0b847	0.01961912
120	0x3cbfcc7d	0.023412937
121	0xbce64203	-0.028107649
122	0xbc08ba6c	-0.008345228
123	0x3d03966f	0.032125887
124	0x3ca11fda	0.019668508
125	0x3d17489d	0.036934484
126	0xbbcf7183	-0.0063306703
127	0x3cec5ff5	0.02885435

conv4.1.weight f4 [128]
0	0x3f87a8ee	1.0598428
1	0x3f8a7ad9	1.081874
2	0x3f887a5f	1.0662345
3	0x3f89b403	1.075806
4	0x3f8cbd4e	1.0995271
5	0x3f8a7981	1.081833
6	0x3f87dd98	1.06145
7	0x3f86f0fc	1.0542293
8	0x3f8dbf75	1.1074053
9	0x3f8b006a	1.0859501
10	0x3f895b68	1.073102
11	0x3f8b0556	1.0861003
12	0x3f91f3bc	1.1402507
13	0x3f8b2512	1.0870688
14	0x3f80fcb2	1.0077116
15	0x3f894de9	1.0726901
16	0x3f8df3d4	1.1090035
17	0x3f8bd52d	1.0924431
18	0x3f8373f0	1.0269756
19	0x3f877b2f	1.0584468
20	0x3f8415d1	1.0319158
21	0x3f8694d0	1.0514164
22	0x3f8291eb	1.0200781
23	0x3f8a5b66	1.0809143
24	0x3f8659bf	1.0496138
25	0x3f8cffc2	1.1015551
26	0x3f910251	1.1328832
27	0x3f85f27e	1.0464628
28	0x3f8af698	1.0856504
29	0x3f8ab6a9	1.0836993
30	0x3f865408	1.0494394
31	0x3f873d34	1.0565553
32	0x3f85439e	1.041126
33	0x3f859451	1.0435888
34	0x3f888823	1.0666546
35	0x3f85b8a6	1.0446975
36	0x3f850928	1.0393419
37	0x3f851b47	1.0398949
38	0x3f887a1a	1.0662262
39	0x3f87964d	1.0592743
40	0x3f87add4	1.0599923
41	0x3f8bf5d5	1.0934397
42	0x3f8b4cda	1.0882828
43	0x3f8357f2	1.0261214
44	0x3f86b659	1.0524398
45	0x3f8e314c	1.1108794
46	0x3f8aaa0f	1.0833148
47	0x3f8a85cb	1.082208
48	0x3f8bbe27	1.0917405
49	0x3f853cca	1.0409176
50	0x3f84e29d	1.0381657
51	0x3f8b429e	1.0879705
52	0x3f87740c	1.058229
53	0x3f8da5e5	1.1066252
54	0x3f8439e2	1.0330164
55	0x3f847828	1.0349169
56	0x3f87bb10	1.0603962
57	0x3f877cdb	1.0584978
58	0x3f8e83ca	1.1133969
59	0x3f859457	1.0435895
60	0x3f87209f	1.055683
61	0x3f851ec7	1.0400017
62	0x3f869a55	1.0515848
63	0x3f82aebf	1.0209578
64	0x3f84fa71	1.0388929
65	0x3f8607be	1.0471113
66	0x3f87bc34	1.060431
67	0x3f89f5ff	1.0778197
68	0x3f84349f	1.0328559
69	0x3f8656b9	1.0495216
70	0x3f8f32a1	1.1187326
71	0x3f8b2d91	1.0873281
72	0x3f8a5b1e	1.0809057
73	0x3f8c625f	1.096752
74	0x3f85fd00	1.0467834
75	0x3f85e1da	1.045955
76	0x3f84ae83	1.0365757
77	0x3f884b0d	1.0647904
78	0x3f884920	1.0647316
79	0x3f87c6c7	1.0607537
80	0x3f872545	1.0558249
81	0x3f8acc04	1.0843511
82	0x3f866581	1.0499727
83	0x3f85741f	1.0426062
84	0x3f887388	1.0660257
85	0x3f81fed4	1.0155892
86	0x3f873a27	1.0564622
87	0x3f8927be	1.0715253
88	0x3f88ea62	1.0696528
89	0x3f8b1b28	1.0867662
90	0x3f85eb55	1.0462443
91	0x3f8de0cb	1.1084226
92	0x3f8f66ec	1.1203284
93	0x3f85a82f	1.044195
94	0x3f855b9a	1.041858
95	0x3f83e46a	1.0304081
96	0x3f8536df	1.040737
97	0x3f8d0985	1.101853
98	0x3f857745	1.0427023
99	0x3f8691ab	1.0513204
100	0x3f837787	1.0270852
101	0x3f83d096	1.029803
102	0x3f86d4af	1.0533656
103	0x3f8932d4	1.0718637
104	0x3f86f5a1	1.054371
105	0x3f8a1c02	1.0789797
106	0x3f8234cd	1.0172364
107	0x3f903bad	1.1268212
108	0x3f8783ee	1.0587137
109	0x3f8766b4	1.0578218
110	0x3f874328	1.056737
111	0x3f82d472	1.0221083
112	0x3f8ba915	1.0910975
113	0x3f885c62	1.0653193
114	0x3f860089	1.0468913
115	0x3f859d2b	1.0438589
116	0x3f89680b	1.0734876
117	0x3f85048b	1.0392011
118	0x3f894c6c	1.0726447
119	0x3f8eab8d	1.1146103
120	0x3f9442ec	1.1582923
121	0x3f90f0ea	1.1323521
122	0x3f86b702	1.05246
123	0x3f87ace5	1.0599638
124	0x3f82dd57	1.0223798
125	0x3f8544e0	1.0411644
126	0x3f8bf773	1.093489
127	0x3f89aa29	1.0755054

conv4.1.bias f4 [128]
0	0xb9b5928c	-0.00034632196
1	0x3cacd84c	0.021099232
2	0x3bfa8cf7	0.007646199
3	0x3cc2b59f	0.023768244
4	0x3d15d2e1	0.036578063
5	0x3c96c616	0.018405002
6	0x3bd2dc8b	0.006434982
7	0x3c7856a4	0.0151573755
8	0x3c9acdf2	0.01889703
9	0x3b55120b	0.0032511975
10	0x3c4ee5c0	0.012628019
11	0x3c0be49c	0.008538391
12	0x3c58f139	0.013241106
13	0xbb3fd2bf	-0.0029269902
14	0xbca7a35a	-0.020463634
15	0x3c858bd1	0.016302021
16	0x3bd7611d	0.006572856
17	0x3c4f8060	0.012664884
18	0x3c4a293c	0.012338933
19	0x3c7eeb1d	0.015558985
20	0xbcab917f	-0.020943401
21	0x3bb9ad13	0.005666384
22	0x3c808321	0.015687527
23	0x3cb4f9b5	0.022091726
24	0x3bbe7f6b	0.0058135292
25	0x3cf193e2	0.029489461
26	0x3ce0e8e8	0.027454808
27	0x3c406f53	0.011745292
28	0x3c094c1d	0.008379963
29	0x3c2255df	0.009908169
30	0x3c968926	0.018375944
31	0x3cc6fba2	0.02428991
32	0x3ba8ba92	0.005149194
33	0x3bbd1692	0.005770513
34	0xbc254c66	-0.010089016
35	0x3cc17850	0.02361694
36	0xbb701269	-0.0036632067
37	0x3c78ea30	0.015192553
38	0x3cd85e91	0.02641228
39	0x3c4c207f	0.01245892
40	0x3bdeaacf	0.0067952643
41	0x3b8a0700	0.0042122602
42	0x3d0067ab	0.031348865
43	0xbb678081	-0.0035324397
44	0x3cd53d6e	0.026030269
45	0x3c9b3a34	0.018948652
46	0x3cc10182	0.02356029
47	0x3b9d5723	0.0048016473
48	0x3c847fae	0.016174164
49	0x3c8f2c1c	0.017477088
50	0xbc2ac504	-0.010422949
51	0x3ccb613f	0.024826644
52	0x3ca82807	0.020526899
53	0x3cf5cd7f	0.030005215
54	0x3c0db55b	0.008649196
55	0xbc1225b5	-0.008920123
56	0x3cc358a4	0.023845978
57	0x3cc6df5b	0.024276426
58	0x3c4c09be	0.012453495
59	0x3aa4de9f	0.0012578553
60	0x3ad16bf0	0.0015977602
61	0x3c839fa8	0.016067341
62	0x3bc9475a	0.006142539
63	0x3c0bc216	0.00853016
64	0xba968eb0	-0.0011486616
65	0xbc5721ae	-0.013130588
66	0x3c93ff63	0.018066114
67	0xbb58a2ac	-0.0033055944
68	0xbc6aee63	-0.014339062
69	0xbc2ac4d1	-0.010422901
70	0x3d11febb	0.03564332
71	0xbb4e03a2	-0.003143527
72	0x3ccbb0d2	0.024864588
73	0x3cf41277	0.029793961
74	0x3b2143ed	0.0024607137
75	0xbb415549	-0.0029500297
76	0x3a6669f5	0.00087895925
77	0x3c11d27b	0.00890028
78	0x3cb9948d	0.022653842
79	0x3c3f95dc	0.011693444
80	0x3c889209	0.016671197
81	0x3d026204	0.031831756
82	0x3c3a96be	0.011388479
83	0xbb3f3f27	-0.002918193
84	0xbbab4d3c	-0.005227713
85	0x3c1dfc0b	0.009642611
86	0x3ba3ad96	0.0049950583
87	0xbb8d123c	-0.004305152
88	0x3c856eb6	0.016288143
89	0x3c246488	0.010033734
90	0x3cbd9a9d	0.023145014
91	0x3ce9b472	0.028528426
92	0x3d091eec	0.033476755
93	0x3b99e96e	0.0046970164
94	0x3c22de77	0.009940735
95	0x3b945638	0.0045268796
96	0xbc19f597	-0.009396932
97	0x3c064dca	0.008197257
98	0x3b4dbddd	0.0031393685
99	0x3c610855	0.013734897
100	0x3c1eb0eb	0.009685735
101	0x3b1c70d9	0.0023870973
102	0x3caa8df9	0.020819651
103	0x3d0bfff4	0.034179643
104	0x3c89f29a	0.016839314
105	0x3c579dd5	0.013160189
106	0xbc29d802	-0.010366442
107	0x3d2cabb7	0.042155948
108	0x3c28054a	0.010255167
109	0xba83fbd2	-0.0010069555
110	0x3cd57827	0.02605827
111	0x3c393691	0.011304514
112	0x3d1d225d	0.03836285
113	0xbb974bab	-0.0046171746
114	0x3c68aefa	0.014201874
115	0xbbc99d9a	-0.006152821
116	0x390e44f8	0.00013567868
117	0xbc854bff	-0.01627159
118	0xb9b494d1	-0.00034443152
119	0xbcbeb977	-0.023281796
120	0x3d152760	0.036414504
121	0x3cc4fef3	0.02404735
122	0x3cb7e5c1	0.022448422
123	0xbbbd1b7a	-0.0057710977
124	0xbc92f776	-0.017940264
125	0x3c909c18	0.017652556
126	0xba66d775	-0.00088059093
127	0x3c535527	0.01289872
